vgg6_int8_state.pth (torch, 279638 bytes, 10 tensors)

cpu f8 [64]
00000000: 0000 0060 d4df 873f 0000 0040 9e79 7f3f
00000010: 0000 0020 bd32 813f 0000 00c0 5494 6c3f
00000020: 0000 00a0 bab0 6f3f 0000 00c0 e253 813f
00000030: 0000 0080 8ba0 853f 0000 0020 402e 663f
00000040: 0000 0060 5bf7 673f 0000 0040 0ccb 633f
00000050: 0000 00a0 506b 7a3f 0000 0060 acfe 7c3f
00000060: 0000 0000 2443 973f 0000 00a0 4d54 853f
00000070: 0000 00e0 7721 6f3f 0000 00c0 4c86 883f
00000080: 0000 00a0 50c6 763f 0000 00a0 f698 703f
00000090: 0000 00c0 d7d1 6a3f 0000 0020 5552 753f
000000a0: 0000 00a0 6ca6 6f3f 0000 0020 dcfd 5f3f
000000b0: 0000 00a0 9f7a 7c3f 0000 0060 f9ef 8d3f
000000c0: 0000 0040 5755 6f3f 0000 0040 326f 673f
000000d0: 0000 0040 c0f1 633f 0000 00c0 012a 843f
000000e0: 0000 0040 32e7 643f 0000 00a0 90fe 6b3f
000000f0: 0000 0000 aed4 753f 0000 0000 1f43 663f
00000100: 0000 0000 16ef 6c3f 0000 0000 b1df 7e3f
00000110: 0000 00e0 e520 683f 0000 00a0 162b 833f
00000120: 0000 0080 965b 7a3f 0000 00e0 a834 763f
00000130: 0000 0020 fea7 683f 0000 00c0 6b9a 7b3f
00000140: 0000 00a0 fc00 9d3f 0000 00e0 f5d1 613f
00000150: 0000 00c0 355f 7e3f 0000 0040 8e35 7e3f
00000160: 0000 0040 6e5d 7b3f 0000 00e0 8ec3 813f
00000170: 0000 0080 10b0 823f 0000 0040 a6d9 773f
00000180: 0000 0080 0145 843f 0000 00a0 9043 623f
00000190: 0000 0040 c4a5 533f 0000 00c0 301e 853f
000001a0: 0000 00a0 4586 833f 0000 0000 53fd 693f
000001b0: 0000 0000 96dc 713f 0000 0000 fb92 873f
000001c0: 0000 0020 8c99 753f 0000 0060 f00d 7f3f
000001d0: 0000 0040 bd48 793f 0000 0020 ff4f 8d3f
000001e0: 0000 00e0 4238 843f 0000 00a0 7b26 913f
000001f0: 0000 00a0 de71 933f 0000 0020 63b5 833f
0.01165738981217146 0.007684343494474888 0.008397557772696018 0.00348869850859046 0.0038684506434947252 0.00846078060567379 0.010560121387243271 0.002707600826397538
0.002925566164776683 0.0024161566980183125 0.006449999753385782 0.007078812923282385 0.022717058658599854 0.010414701886475086 0.003800138598307967 0.011974906548857689
0.005560221616178751 0.004052127245813608 0.0032738889567553997 0.005205471534281969 0.003863536985591054 0.0019526147516444325 0.0069528804160654545 0.014617870561778545
0.003824873361736536 0.0028606397099792957 0.0024346117861568928 0.00984574668109417 0.0025516492314636707 0.0034172844607383013 0.005329780280590057 0.0027175527065992355
0.00353197380900383 0.0075375474989414215 0.0029453744646161795 0.009359528310596943 0.006435001268982887 0.005421313922852278 0.00300979265011847 0.006739064119756222
0.028324076905846596 0.0021753122564405203 0.007415018044412136 0.0073752934113144875 0.006680899299681187 0.008673778735101223 0.00912487879395485 0.0058228010311722755
0.009897243231534958 0.002229483099654317 0.001199189806357026 0.010311489924788475 0.009533447213470936 0.003172552213072777 0.004360757768154144 0.011510811746120453
0.005273387301713228 0.007581652607768774 0.006172885186970234 0.014312737621366978 0.00987293478101492 0.01674836315214634 0.018989065662026405 0.009623312391340733

model.features.0.bias f4 [64]
00000000: 7c88 443c 26c8 1e3f 58f9 d7be e813 2fbf
00000010: f103 94be b39f 6cbe 241d 15bf f775 983e
00000020: bfca 1abf 8ea9 1fbf 260e 54be 2963 60bf
00000030: 0c37 253f 74e9 abbc f0c5 9f3c e40c c9be
00000040: df86 873f 0a73 0e3d 90ba cdbe 9276 3f3f
00000050: d077 4cbe 5805 1cbf c607 9e3e 0bdf 403f
00000060: 363a 34bf b10a 52bf 2b9a 71bd 8a0a e2bd
00000070: 686b d7be 34ce 71be a1ae 3abf 0325 88be
00000080: 9134 60bf 45aa 4c3f a574 0abe 504a 333f
00000090: 645d 62be 5be1 7dbf 462e 8ebe 3922 e9bd
000000a0: a8e6 233f 3efd b7be 403e bcbd 5194 1cbf
000000b0: fd8b 793f 3e79 8d3e 98bc 093f caee 5cbf
000000c0: 2b7b 2c3f 5c01 76bf 30fe e6be 2b21 9abc
000000d0: 8dd6 fe3e e074 07bf 9032 81bf 3258 0c3f
000000e0: 6605 01bf 1cd3 b3bc 7427 c6bd e3e0 0b3f
000000f0: 043c 873f f368 8a3f 6b1c 953f 1c65 553e
0.011995431 0.6202415 -0.42182422 -0.6838975 -0.28909257 -0.23107795 -0.5824759 0.297775
-0.60465616 -0.62368095 -0.20708522 -0.87651306 0.6453712 -0.020985343 0.019503564 -0.39267647
1.0588034 0.03477768 -0.40181398 0.747903 -0.1996758 -0.60945654 0.30865306 0.75340337
-0.7040132 -0.82047564 -0.058984917 -0.110371664 -0.42074132 -0.23613816 -0.7292271 -0.26590738
-0.8758021 0.7994731 -0.13521059 0.70035267 -0.22105938 -0.9917199 -0.2776968 -0.113834806
0.6402383 -0.35935396 -0.09191561 -0.6116381 0.9747923 0.27631563 0.53803396 -0.86301863
0.6737544 -0.96095824 -0.45115805 -0.018814644 0.49773064 -0.5291271 -1.0093555 0.54822075
-0.5039886 -0.02195125 -0.09675494 0.54640025 1.056519 1.0813278 1.1649297 0.20839351

cpu f8 [64]
00000000: 0000 0040 f424 4f3f 0000 0060 1611 583f
00000010: 0000 00a0 cac4 4e3f 0000 00c0 9c05 503f
00000020: 0000 0040 2b47 463f 0000 0080 513f 513f
00000030: 0000 0080 e0e4 553f 0000 0020 b4dc 4f3f
00000040: 0000 0040 dbf9 4f3f 0000 00e0 d1be 513f
00000050: 0000 0040 aac2 5a3f 0000 0000 2748 4f3f
00000060: 0000 0020 826c 5a3f 0000 00a0 e3f0 453f
00000070: 0000 00e0 7129 473f 0000 0080 710d 553f
00000080: 0000 0000 91eb 413f 0000 00c0 b4d3 4f3f
00000090: 0000 00c0 095b 543f 0000 0040 a90b 613f
000000a0: 0000 0000 e1ee 553f 0000 0080 3219 473f
000000b0: 0000 00a0 e16e 513f 0000 0080 792b 483f
000000c0: 0000 00a0 05bb 523f 0000 0020 cae0 513f
000000d0: 0000 00a0 06c3 553f 0000 0000 596e 503f
000000e0: 0000 00a0 4655 513f 0000 0040 b638 503f
000000f0: 0000 0080 c74b 4e3f 0000 00c0 f8c7 493f
00000100: 0000 00a0 6f6a 4e3f 0000 0020 493b 463f
00000110: 0000 0060 12b5 493f 0000 0040 91bf 503f
00000120: 0000 0060 2a3b 4c3f 0000 0060 504a 533f
00000130: 0000 0060 03bf 523f 0000 00a0 0baa 533f
00000140: 0000 00e0 4fa1 483f 0000 0040 9bfe 513f
00000150: 0000 00a0 3b63 523f 0000 0060 1b16 5f3f
00000160: 0000 0020 1ed5 483f 0000 00a0 446d 4e3f
00000170: 0000 0000 290b 563f 0000 0040 46a4 4c3f
00000180: 0000 00c0 58f0 4e3f 0000 0020 08d4 4c3f
00000190: 0000 00a0 1cd9 5b3f 0000 0020 090d 413f
000001a0: 0000 0080 03cc 513f 0000 0080 fdcd 553f
000001b0: 0000 0060 c762 433f 0000 0040 d4dc 473f
000001c0: 0000 00a0 b0ad 4b3f 0000 00e0 8672 513f
000001d0: 0000 0060 ecc0 4f3f 0000 0020 7755 593f
000001e0: 0000 0060 d6c5 483f 0000 0060 b2c8 4f3f
000001f0: 0000 00a0 837e 433f 0000 0060 26b5 523f
0.000950450194068253 0.0014689177041873336 0.0009389867191202939 0.0009779005777090788 0.0006798707181587815 0.0010526939295232296 0.0013363067992031574 0.0009723548428155482
0.0009758301312103868 0.0010830926476046443 0.0016333258245140314 0.0009546461515128613 0.0016127844573929906 0.0006695853662677109 0.0007068449049256742 0.0012849434278905392
0.0005468805320560932 0.0009712822502478957 0.0012424082960933447 0.0020807557739317417 0.0013386914506554604 0.0007049080450087786 0.0010640338296070695 0.0007376044522970915
0.0011432223254814744 0.0010911916615441442 0.0013282360741868615 0.0010028714314103127 0.001057929010130465 0.0009900836739689112 0.0009245609398931265 0.0007867779349908233
0.0009282155078835785 0.0006784541183151305 0.0007845248910598457 0.0010222357232123613 0.0008615452679805458 0.0011773857986554503 0.0011441739043220878 0.0012002099538221955
0.0007516517653129995 0.001098300563171506 0.0011222917819395661 0.0018973605474457145 0.0007578274817205966 0.0009285531123168766 0.0013454342260956764 0.0008740752236917615
0.0009441789006814361 0.000879768340382725 0.0016997127095237374 0.0005203527980484068 0.00108623830601573 0.0013308501802384853 0.0005916093359701335 0.0007282291771844029
0.0008446800638921559 0.0010649029863998294 0.0009690431761555374 0.0015462554292753339 0.0007560059311799705 0.0009699698421172798 0.0005949156475253403 0.0011418223148211837

model.features.3.bias f4 [64]
00000000: 7cb4 f73e a0da 33bd cd53 0b3f f885 613e
00000010: b07d 9b3e f0dc 2c3f d234 673f d255 b23e
00000020: ed5c f33e 49c8 3f3f 6866 fbbd e854 743e
00000030: 10b2 173e 842e 173f 8452 833d 38e5 c03e
00000040: c621 1040 9099 bb3e 402a fc3e 04e0 1e3e
00000050: 6dfd de3e e48f 23be 4c98 ffbd d0f1 393e
00000060: 989b 9bbd 36dc 513f 4b6a 2d3f aec9 1a3f
00000070: 7a3e 3a3f 2038 ee3d e7d8 8dbe eb41 273f
00000080: 60b1 54bd 32be aebf 00dc 7bba 97da 013f
00000090: f275 033f 84b5 2a3f ef16 97bf b82a 2a3f
000000a0: 3061 2e3f 00d0 32bd d8f6 553e 3b75 f03e
000000b0: d26a be3e b528 293f 7432 7e3e f84a 583e
000000c0: 04f1 133e cae1 1cbf c012 04bc 02ec 80bf
000000d0: edc2 b13e 6c79 163e fc22 bdbe 9d9b 633f
000000e0: 2be2 d33e 9981 2e3f 316d 85be a06e fd3c
000000f0: a09f a0bc 0e8a 053f e8b3 1c3f f2c8 3c3f
0.48379886 -0.04390967 0.54424745 0.22023761 0.3036933 0.67524624 0.9031497 0.348311
0.47531834 0.74914986 -0.12275392 0.23860514 0.14814019 0.5905535 0.06412223 0.3767488
2.2520614 0.36640596 0.49250984 0.15515143 0.43552724 -0.15972859 -0.1248022 0.1815865
-0.075980365 0.8197664 0.67740315 0.6046399 0.7275158 0.11631799 -0.27704546 0.6533496
-0.05192697 -1.3651793 -0.00096076727 0.50724167 0.51351845 0.6668322 -1.1803874 0.66471434
0.68117046 -0.043655396 0.20894945 0.4696444 0.37190872 0.6607774 0.24823934 0.21122348
0.14447409 -0.61282027 -0.008061111 -1.0072024 0.3471903 0.14694756 -0.36940753 0.8890932
0.4138349 0.681665 -0.2605987 0.03093654 -0.019607365 0.5216378 0.61212015 0.7374412

cpu f8 [128]
00000000: 0000 0080 8166 5a3f 0000 0020 4df6 5f3f
00000010: 0000 00c0 6e64 603f 0000 00a0 fcee 663f
00000020: 0000 00a0 bb61 633f 0000 00e0 adf9 573f
00000030: 0000 0000 1f44 5e3f 0000 0040 8c7e 683f
00000040: 0000 00c0 3467 5f3f 0000 00e0 f7b5 583f
00000050: 0000 0000 a22a 623f 0000 0080 85ef 693f
00000060: 0000 0020 1aca 623f 0000 00e0 bf01 673f
00000070: 0000 0020 dbc0 603f 0000 0000 619c 623f
00000080: 0000 00e0 ab25 5e3f 0000 0040 908b 5f3f
00000090: 0000 00a0 a4b2 663f 0000 00c0 a449 643f
000000a0: 0000 0040 191d 613f 0000 00a0 b95a 613f
000000b0: 0000 00e0 7c64 603f 0000 00e0 edb0 5f3f
000000c0: 0000 0040 2c81 613f 0000 0080 1a51 673f
000000d0: 0000 0040 4d8f 5d3f 0000 00e0 2bb1 5d3f
000000e0: 0000 0020 c3d3 653f 0000 0080 dc4d 623f
000000f0: 0000 00a0 e080 643f 0000 00c0 bb09 643f
00000100: 0000 0060 b77d 673f 0000 00a0 3ca1 643f
00000110: 0000 0060 7f75 603f 0000 0020 b3a0 5f3f
00000120: 0000 00a0 00cb 5a3f 0000 0020 5dc6 5f3f
00000130: 0000 00c0 0fb5 603f 0000 0040 782a 623f
00000140: 0000 0020 377e 5d3f 0000 00e0 bca7 623f
00000150: 0000 00e0 4c1b 623f 0000 0000 4317 673f
00000160: 0000 0040 9e38 673f 0000 0040 b409 613f
00000170: 0000 0020 84cb 5e3f 0000 0060 da12 603f
00000180: 0000 0000 5eb7 5d3f 0000 0060 7dd9 623f
00000190: 0000 0040 7e28 613f 0000 00a0 8df7 613f
000001a0: 0000 0040 b223 603f 0000 00c0 7733 603f
000001b0: 0000 00a0 075f 5c3f 0000 0060 9af4 613f
000001c0: 0000 00c0 8e12 5e3f 0000 0080 601c 5c3f
000001d0: 0000 0040 e9ed 663f 0000 0060 83eb 633f
000001e0: 0000 00a0 5653 5f3f 0000 00a0 e9dc 613f
000001f0: 0000 0020 52b9 643f 0000 0000 5fb5 633f
00000200: 0000 0000 6c7f 603f 0000 0000 480b 5b3f
00000210: 0000 0020 6b53 603f 0000 0020 e2a8 6a3f
00000220: 0000 00a0 42fd 623f 0000 0020 cfbf 5b3f
00000230: 0000 0080 390e 623f 0000 00c0 b477 643f
00000240: 0000 0080 bfdb 613f 0000 00a0 6fd8 5e3f
00000250: 0000 0020 c871 5d3f 0000 0020 b315 613f
00000260: 0000 0020 1d8c 583f 0000 00e0 7a27 623f
00000270: 0000 0080 826c 5c3f 0000 0040 1632 623f
00000280: 0000 0020 1f10 633f 0000 00e0 4f5d 603f
00000290: 0000 0060 0a24 5e3f 0000 0000 fb03 643f
000002a0: 0000 0080 9098 643f 0000 0000 72c8 603f
000002b0: 0000 0080 57f8 5a3f 0000 0080 fa5a 603f
000002c0: 0000 0080 26b2 683f 0000 0080 7af5 5c3f
000002d0: 0000 0080 d44f 623f 0000 00c0 9ce6 5d3f
000002e0: 0000 00a0 10fd 603f 0000 0000 459a 643f
000002f0: 0000 00c0 3705 633f 0000 00e0 c945 623f
00000300: 0000 00e0 3bfb 623f 0000 00c0 8c10 633f
00000310: 0000 0040 cb4d 5f3f 0000 00e0 8c91 5e3f
00000320: 0000 0040 f20f 663f 0000 0040 a8da 623f
00000330: 0000 00a0 a0cd 5c3f 0000 00a0 b07b 5e3f
00000340: 0000 00c0 2a5a 643f 0000 0020 0099 633f
00000350: 0000 00e0 e788 5e3f 0000 0040 894a 673f
00000360: 0000 0040 d18e 613f 0000 0020 cb64 5d3f
00000370: 0000 0080 99a2 623f 0000 0000 f5e1 653f
00000380: 0000 00e0 3994 663f 0000 00e0 b3e1 663f
00000390: 0000 00a0 42d5 603f 0000 0080 393e 5c3f
000003a0: 0000 0020 4712 613f 0000 0000 e28d 623f
000003b0: 0000 0060 00d9 613f 0000 0000 a790 633f
000003c0: 0000 0080 3a55 5e3f 0000 0060 f598 603f
000003d0: 0000 00c0 79a8 613f 0000 0080 ffa9 6a3f
000003e0: 0000 00a0 ca25 603f 0000 00c0 6915 623f
000003f0: 0000 0040 796b 653f 0000 0020 bdcc 5c3f
0.001611353363841772 0.0019508126424625516 0.00200101500377059 0.0027995046693831682 0.0023659386206418276 0.0014633367536589503 0.0018472960218787193 0.0029900302179157734
0.001916696084663272 0.0015082283644005656 0.0022175945341587067 0.003165970556437969 0.002293635392561555 0.002808451419696212 0.0020450858864933252 0.002271832898259163
0.0018400362459942698 0.0019253643695265055 0.0027707305271178484 0.002476522233337164 0.0020890706218779087 0.0021184564102441072 0.0020010413136333227 0.0019342730520293117
0.0021367897279560566 0.0028462903574109077 0.0018041853327304125 0.0018122604815289378 0.002664452651515603 0.002234392799437046 0.002502859802916646 0.0024460474960505962
0.002867563394829631 0.0025182899553328753 0.002009152201935649 0.001930403639562428 0.0016353136161342263 0.0019393834518268704 0.002039461862295866 0.0022175167687237263
0.0018001116113737226 0.002277249237522483 0.0022102834191173315 0.0028187092393636703 0.002834614831954241 0.002079822588711977 0.0018795767100527883 0.0019621148239821196
0.0018137376755475998 0.002300972817465663 0.0020945039577782154 0.0021932378876954317 0.00197014631703496 0.0019776667468249798 0.0017316412413492799 0.002191831124946475
0.0018354791682213545 0.0017157499678432941 0.0027989917434751987 0.0024316373746842146 0.0019119592616334558 0.0021805346477776766 0.0025297740940004587 0.0024058204144239426
0.002013884484767914 0.0016506388783454895 0.0019929020199924707 0.003254357958212495 0.002318029524758458 0.0016936800675466657 0.0022040484473109245 0.0024984865449368954
0.002179979346692562 0.001882657059468329 0.0017971472116187215 0.0020855425391346216 0.0014982494758442044 0.0022160911466926336 0.001734855119138956 0.0022211489267647266
0.00232702330686152 0.0019976196344941854 0.0018396474188193679 0.0024433042854070663 0.002514154650270939 0.0020487047731876373 0.0016461233608424664 0.0019965069368481636
0.0030146362259984016 0.0017675110138952732 0.0022353315725922585 0.0018250017892569304 0.0020737957675009966 0.002514967694878578 0.0023218239657580853 0.0022305434104055166
0.0023170632775872946 0.0023272274993360043 0.001910637365654111 0.0018657565815374255 0.002693150658160448 0.0023015295155346394 0.001758009777404368 0.0018605446675792336
0.002484401222318411 0.0023922922555357218 0.0018636955646798015 0.002843158785253763 0.0021432959474623203 0.001794050564058125 0.002274799160659313 0.0026712212711572647
0.0027562265750020742 0.002793170278891921 0.002054815413430333 0.0017238198779523373 0.0020839108619838953 0.002264920622110367 0.002178669674322009 0.0023883115500211716
0.0018513747490942478 0.0020260612946003675 0.002155530732125044 0.0032548895105719566 0.0019711453933268785 0.002207476180046797 0.0026147239841520786 0.001757797901518643

model.features.7.bias f4 [128]
00000000: 58c4 793e 504f fd3e 8573 18bf b6d0 d4be
00000010: 0724 e1be 8d19 58bf 6d71 dfbe dbf9 95bf
00000020: 38e3 88be d2d6 96bf 800a dabb b870 c9bd
00000030: 3290 e3be 683a a5be 4324 01bf 48ec c73d
00000040: a07e 36bf 780d 9ebe 720a 09bf 6aa7 5cbf
00000050: 6e48 4ebe 508b 8abd 927c 07bf e843 f1be
00000060: d822 eb3d 920e 67bf 8086 02bd 46e2 4bbf
00000070: 3853 91bf b0bc 6bbe d2df 0abf de22 aabe
00000080: e99e 23bf ce28 49bf 3f41 1fbf 1a73 a0be
00000090: 1600 97bf 2648 70bf b557 e9be a4af 8abf
000000a0: f05a 23bf ac92 10be 7fdb 40bf 2c52 1ebf
000000b0: c144 6abf ec89 3dbe c4ae 6cbf c88e ab3d
000000c0: b4e5 a2be 2e80 b1be d5a5 bfbe 15d6 96be
000000d0: 2e9d bbbe 1b7b bfbe d0e2 afbd dc96 fb3e
000000e0: faef 4fbf 52e4 72bf 122a 82bf e08d e8be
000000f0: 2c7b 65be 5089 c8be 5a9b 5ebf a6a2 18bf
00000100: 9ae2 19bf 4a43 dabe 2267 16be 05b7 55bf
00000110: 4d57 e2be 1398 96be b175 14bf fa7a 04bf
00000120: 3d1d 1fbf 5608 13bf 3133 01bf 744a 33be
00000130: 6470 8cbf 6988 78bf afb5 42bf 657f fbbe
00000140: cc35 3f3e 015d 6ebf f6c1 88be 9e5a 9abf
00000150: b80a 92be 5861 c3be fec4 10bf 0efe f1be
00000160: b2b6 6abf 3ab0 ef3e 7c96 1abf 60f9 51be
00000170: 2240 08bf b287 22bf 74ab f7be ba5d a9be
00000180: 3968 30bf de4b 99be 5ccc 2ebf 4969 14bf
00000190: 07e6 86be 200b 0cbf 6d90 53bf 1258 5ebf
000001a0: a46c 84be bfa3 a6be 7ad4 05bf 8049 1ebe
000001b0: 57ef a9be 2118 01bf c094 8a3d 006e 14bb
000001c0: 6ca6 83be 60b2 37bf 7e38 0ebf 93aa 44bf
000001d0: 8adf 72bf ecde 843e eb09 f7be 47c3 53bf
000001e0: 565d e6be de96 73bf b3e9 2cbf 0722 a5be
000001f0: c0fd c83e f88e 6dbe 4229 b2be d2a6 96bf
0.24391305 0.49474573 -0.5955127 -0.41565484 -0.439728 -0.8441399 -0.43641225 -1.1716875
-0.26735854 -1.1784308 -0.0066540837 -0.098359525 -0.4444595 -0.32271123 -0.50445956 0.09761864
-0.71286964 -0.3086965 -0.53531563 -0.86192954 -0.20144817 -0.06764853 -0.52924454 -0.4712212
0.11481255 -0.9025661 -0.03186655 -0.7964214 -1.1353521 -0.23021197 -0.5424777 -0.33229727
-0.6391435 -0.7857789 -0.6220893 -0.31337816 -1.1796901 -0.9386009 -0.45574728 -1.0834851
-0.63810635 -0.14118451 -0.75334924 -0.61844134 -0.9151116 -0.18509644 -0.9245417 0.08376843
-0.31815875 -0.34668106 -0.37431207 -0.29460207 -0.36643356 -0.3739861 -0.08588183 0.49138534
-0.8122555 -0.9487964 -1.0169089 -0.45420742 -0.22410268 -0.3916726 -0.869558 -0.5962318
-0.6011139 -0.42629462 -0.1468778 -0.8348239 -0.4420723 -0.29412898 -0.5799208 -0.5175015
-0.6215399 -0.57434595 -0.50468737 -0.1750887 -1.0971799 -0.97083145 -0.7605848 -0.49120632
0.18672866 -0.9311066 -0.2671048 -1.2058904 -0.28523803 -0.38160205 -0.56550586 -0.4726414
-0.9168502 0.46814138 -0.6038587 -0.20505285 -0.5322286 -0.63488305 -0.48372996 -0.3307932
-0.6890903 -0.29940695 -0.6828058 -0.5797315 -0.26347372 -0.54704475 -0.8264225 -0.86853135
-0.25864136 -0.32546803 -0.5227734 -0.15457726 -0.33190414 -0.5042744 0.06766653 -0.0022648573
-0.25712907 -0.71756554 -0.5555495 -0.76822776 -0.94872344 0.25951326 -0.48249754 -0.82719845
-0.44993085 -0.9515208 -0.67544097 -0.32252523 0.39256096 -0.2319907 -0.34797102 -1.176966

cpu f8 [128]
00000000: 0000 0000 ccc0 6a3f 0000 00a0 ca5b 683f
00000010: 0000 0020 94d1 6c3f 0000 0020 2e5f 703f
00000020: 0000 0000 5622 6e3f 0000 00e0 6cb0 6a3f
00000030: 0000 00a0 38b3 6e3f 0000 0040 b622 6d3f
00000040: 0000 00a0 09e6 6f3f 0000 0080 44d1 6a3f
00000050: 0000 0040 2012 6e3f 0000 0060 8575 6b3f
00000060: 0000 00a0 03ff 6c3f 0000 00e0 f5fd 6c3f
00000070: 0000 00e0 c797 693f 0000 00e0 fb0d 6d3f
00000080: 0000 0080 15af 703f 0000 0060 5579 703f
00000090: 0000 0040 b976 6e3f 0000 0020 3540 703f
000000a0: 0000 00e0 2b6c 6f3f 0000 0020 dc46 6d3f
000000b0: 0000 0020 4617 653f 0000 0020 c8f3 713f
000000c0: 0000 00e0 e9d3 703f 0000 0060 927a 6e3f
000000d0: 0000 0000 5fee 673f 0000 00c0 c809 6a3f
000000e0: 0000 0060 083b 6f3f 0000 00e0 f798 693f
000000f0: 0000 0040 6239 693f 0000 0020 fcf7 733f
00000100: 0000 0040 8e56 733f 0000 00e0 c9d8 6c3f
00000110: 0000 0020 fa49 6f3f 0000 0080 4c50 703f
00000120: 0000 00a0 9ca2 713f 0000 0080 842d 6d3f
00000130: 0000 00c0 7dac 6c3f 0000 0000 bd90 6d3f
00000140: 0000 0060 ba76 6f3f 0000 0020 b7a1 703f
00000150: 0000 0040 fa62 6e3f 0000 0060 e432 723f
00000160: 0000 0060 e8aa 6b3f 0000 0080 4b55 6e3f
00000170: 0000 00e0 f26f 683f 0000 00c0 8ed3 6b3f
00000180: 0000 0060 34d7 6d3f 0000 0060 2efe 723f
00000190: 0000 0000 4bf4 6d3f 0000 00e0 2e23 713f
000001a0: 0000 0020 0e85 6d3f 0000 0060 9457 6b3f
000001b0: 0000 0060 e5f2 6e3f 0000 0000 6912 763f
000001c0: 0000 00e0 91fa 6c3f 0000 0040 0cd9 6e3f
000001d0: 0000 00a0 3313 6c3f 0000 00a0 922f 6f3f
000001e0: 0000 00e0 a013 6d3f 0000 0000 6355 703f
000001f0: 0000 00a0 8ea7 6d3f 0000 00c0 1364 683f
00000200: 0000 00c0 febc 6a3f 0000 0080 726d 6d3f
00000210: 0000 0040 e3b4 6c3f 0000 00c0 a278 693f
00000220: 0000 0080 8783 703f 0000 00c0 6682 6e3f
00000230: 0000 0020 6f53 6b3f 0000 00c0 1c44 6d3f
00000240: 0000 0020 f60c 6b3f 0000 00e0 6d54 6f3f
00000250: 0000 00a0 7871 6b3f 0000 0020 1301 703f
00000260: 0000 00e0 222e 6a3f 0000 0040 c8ac 6c3f
00000270: 0000 0020 8fe9 713f 0000 00a0 e28e 753f
00000280: 0000 0040 5af7 6b3f 0000 00c0 72e0 6e3f
00000290: 0000 0000 3bfb 673f 0000 00e0 c777 6a3f
000002a0: 0000 0000 b70f 6c3f 0000 00e0 0520 6d3f
000002b0: 0000 00a0 16b8 6a3f 0000 0060 568a 713f
000002c0: 0000 0040 a9f4 6b3f 0000 00a0 001b 6f3f
000002d0: 0000 00e0 80ad 6a3f 0000 0000 9d2e 6e3f
000002e0: 0000 00a0 46fe 693f 0000 0000 c00f 6f3f
000002f0: 0000 0060 adf9 703f 0000 0000 44d7 6d3f
00000300: 0000 0060 5ed1 703f 0000 00a0 7766 6d3f
00000310: 0000 00a0 9c71 6d3f 0000 0060 883e 6f3f
00000320: 0000 0060 5a56 703f 0000 00c0 0d0a 703f
00000330: 0000 0080 3444 6b3f 0000 0000 3763 723f
00000340: 0000 0060 7162 6e3f 0000 0080 504a 6d3f
00000350: 0000 0000 e3bf 6c3f 0000 0000 e343 723f
00000360: 0000 0040 94a8 6b3f 0000 0020 15ee 683f
00000370: 0000 00a0 746c 6c3f 0000 00e0 320c 6b3f
00000380: 0000 0040 720b 6f3f 0000 00a0 1c13 6a3f
00000390: 0000 0000 4759 6d3f 0000 00c0 8259 6a3f
000003a0: 0000 00a0 abac 703f 0000 00a0 7dbe 6e3f
000003b0: 0000 00c0 bf35 723f 0000 0040 3ad6 6a3f
000003c0: 0000 0020 4bce 683f 0000 00a0 2ae6 703f
000003d0: 0000 0020 50aa 6b3f 0000 00e0 1c67 6f3f
000003e0: 0000 00c0 3a57 703f 0000 0040 fb20 6d3f
000003f0: 0000 00c0 c1b3 6e3f 0000 00e0 5e69 783f
0.003265760838985443 0.0029734570998698473 0.003517903620377183 0.00399702088907361 0.00367848202586174 0.0032579542603343725 0.0037475686985999346 0.0035565909929573536
0.00389387016184628 0.0032736146822571754 0.003670752514153719 0.0033519368153065443 0.003539568977430463 0.003539066528901458 0.0031241325195878744 0.003546707099303603
0.004073223099112511 0.0040219626389443874 0.003718721214681864 0.003967483062297106 0.00383575982414186 0.003573827678337693 0.0025745744351297617 0.0043828790076076984
0.0041083465330302715 0.0037205561529845 0.0029212813824415207 0.0031784935854375362 0.003812328679487109 0.0031246987637132406 0.00307912053540349 0.0048751686699688435
0.004721217788755894 0.003521341597661376 0.0038194546941667795 0.003982828930020332 0.004305469337850809 0.0035617435351014137 0.0035002189688384533 0.0036090556532144547
0.0038407936226576567 0.004060473758727312 0.0037093055434525013 0.004443065728992224 0.003377393586561084 0.0037027811631560326 0.0029830688145011663 0.003396776970475912
0.003642656607553363 0.004636937286704779 0.003656527027487755 0.004183943849056959 0.0036034847144037485 0.003337659640237689 0.003777931211516261 0.005388651043176651
0.0035374497529119253 0.003765605855733156 0.0034271248150616884 0.003806864144280553 0.003549398621544242 0.003987681120634079 0.003619936527684331 0.00297740800306201
0.003263948019593954 0.0035922275856137276 0.0035042227245867252 0.0031092814169824123 0.00403168611228466 0.0037242895923554897 0.0033356829080730677 0.003572517540305853
0.003302078926935792 0.0038244386669248343 0.003350005717948079 0.003907274920493364 0.003195827594026923 0.003500357735902071 0.004373129922896624 0.005263219121843576
0.00341384531930089 0.0037691346369683743 0.002927413210272789 0.0032309440430253744 0.003425462171435356 0.0035553087946027517 0.0032616083044558764 0.004282319452613592
0.00341256195679307 0.0037970554549247026 0.0032565610017627478 0.003684336319565773 0.003173005999997258 0.0037916898727416992 0.004144360776990652 0.0036426857113838196
0.004105919506400824 0.0035888992715626955 0.0035942133981734514 0.00381399760954082 0.003988602664321661 0.003915837965905666 0.003328421153128147 0.004489149898290634
0.0037090505938977003 0.0035754749551415443 0.0035094674676656723 0.00445927307009697 0.0033762832172214985 0.0030432140920311213 0.0034696843940764666 0.0033017152454704046
0.003789637703448534 0.003182941349223256 0.0035826098173856735 0.00321651017293334 0.0040709213353693485 0.003752942429855466 0.004445790313184261 0.0032759797759354115
0.0030280558858066797 0.0041257538832724094 0.0033771099988371134 0.003833347698673606 0.003989438526332378 0.0035557658411562443 0.003747824113816023 0.005959864240139723

model.features.10.bias f4 [128]
00000000: 60ee f4bd 2b2c 96be 5a33 cd3e 3e4b 0d3e
00000010: 583d 103e 2e5c 23be 207b 82bc 8000 e2bd
00000020: 0393 9cbe bb01 923e cad8 c0be e919 85be
00000030: 27fc 5cbe 3755 2cbe 19e0 bc3e 1c26 413d
00000040: ea10 d9be e860 17be c64e c6bd b1d0 6abe
00000050: 7e1c a9be a043 f83c 87c5 babd d89a b8be
00000060: ca31 afbe 18bc ffbd bc1e 95be acba 88be
00000070: 6c80 84bd 8cda c7be a656 243e 26f4 80be
00000080: 14e9 96be 60bd 16bf 00aa 27bb 3164 a33e
00000090: 7d0a 02be 51fb 26be be4a c73d 0c82 53be
000000a0: 75ae b8be 2269 babe 0847 303d a9a0 bdbe
000000b0: 52ab f73d 8785 9fbe 6240 8bbe 30f5 dd3c
000000c0: 921a 07bf ec7c 523e 0823 66bd 2c23 11be
000000d0: 0cce 5abe 588b 0ebd 8985 52be 7a19 67be
000000e0: 9bb6 e9bd 7863 6cbe ac3a c5be 3c7e c3bd
000000f0: ca14 26bf 1433 c5be 9e56 96be 088a 983d
00000100: b696 1d3e 5876 2abe 6e62 edbe 19e3 bcbd
00000110: aa54 ccbd 28d8 1ebe 30f1 c5bc ba7b 60be
00000120: a002 90bc d983 a93d 7787 97be 2240 bb3e
00000130: 9901 a6be bfef acbe 1e53 a3bd 545e 41bf
00000140: dc92 34be 58a1 f83d d22e a5bd 89b1 d2be
00000150: 58ba 47bd c86b 47be ba97 233e 6201 bebe
00000160: 7c37 2ebe d4c5 92bd b04b 0c3e 6090 cdbc
00000170: 943e e7bd f058 ff3c 5a00 a23d 0378 af3e
00000180: c0d4 57bd 80c5 98be 9c2e 9abe 9737 a1be
00000190: 7ed4 7bbe 8ab2 a9be 7328 26be e0ff 153e
000001a0: d30d e6be 95a0 babe dc54 e7be 2439 ccbd
000001b0: 28ea 773d d833 b4be 54b8 1ebe 5066 2abf
000001c0: 592b 2cbe e194 85be b09f 1bbd c8a4 9cbe
000001d0: 33f5 52be b0bb bebd 1454 c2bd e49b 473e
000001e0: 264e 59bd d005 9ebc 406c 94bd 509a 19bd
000001f0: 4093 70be f446 84be 4c18 abbd 7c15 843e
-0.11959529 -0.29330572 0.4007824 0.13798234 0.14085901 -0.15953133 -0.015927851 -0.110352516
-0.3058091 0.28516945 -0.37665397 -0.2599633 -0.21580563 -0.16829382 0.36889723 0.047155485
-0.42395717 -0.1478306 -0.096829936 -0.22931172 -0.3302955 0.030305684 -0.091197066 -0.36055636
-0.34217674 -0.12487048 -0.2912501 -0.2670492 -0.06469807 -0.39033926 0.16048679 -0.2518627
-0.294747 -0.58882713 -0.0025583506 0.31912377 -0.12699313 -0.16306807 0.09731053 -0.20655078
-0.360706 -0.36408335 0.04303649 -0.37036636 0.12093224 -0.3115656 -0.27197558 0.027094454
-0.5277492 0.20555466 -0.056185752 -0.14173573 -0.21367663 -0.034800857 -0.20558752 -0.22568312
-0.11411782 -0.2308482 -0.38521326 -0.09545562 -0.6487547 -0.38515532 -0.2936296 0.07448202
0.15389523 -0.16646707 -0.46364158 -0.09223003 -0.09977086 -0.15512145 -0.024162859 -0.21922198
-0.017579377 0.08277101 -0.2959554 0.36572367 -0.32423094 -0.33776662 -0.07974838 -0.7553456
-0.17634147 0.12140149 -0.08065571 -0.41151074 -0.048761696 -0.19474709 0.15975848 -0.3711043
-0.17013353 -0.07166639 0.13700747 -0.025093257 -0.11291233 0.031170338 0.07910223 0.3427125
-0.05269313 -0.2983818 -0.30113685 -0.31487724 -0.24592778 -0.33144027 -0.16226368 0.1464839
-0.44932422 -0.3645064 -0.4518193 -0.09971836 0.060526043 -0.35195804 -0.15500003 -0.66562366
-0.16813411 -0.26090148 -0.037994087 -0.30594468 -0.20601349 -0.09313142 -0.09488693 0.19493061
-0.053053044 -0.019289881 -0.072472095 -0.03750068 -0.23493671 -0.25835383 -0.08354244 0.2579764

cpu f8 [10]
00000000: 0000 0080 0ead 843f 0000 00c0 e7ad 7f3f
00000010: 0000 00a0 2284 823f 0000 00a0 bf5a 7e3f
00000020: 0000 00a0 3f05 853f 0000 00e0 90ca 7f3f
00000030: 0000 00e0 acf8 803f 0000 0060 6572 7e3f
00000040: 0000 0000 95c0 823f 0000 0020 7e74 813f
0.010095704346895218 0.00773420836776495 0.009041090495884418 0.007410763297230005 0.010263917036354542 0.007761541288346052 0.008286810480058193 0.007433315273374319
0.009156383574008942 0.008522973395884037

cpu f4 [10]
00000000: f4ae a33d 7e80 87bd 88fb 89bc 739f 0ebd
00000010: 9c8b 7b3d f79c 6cbc db20 ff3d d1df 55bd
00000020: 90c8 ff3a 9c4b 8fbd
0.07992354 -0.06616305 -0.016843572 -0.03482003 0.06141244 -0.01444172 0.124574386 -0.0522154
0.0019514728 -0.06996843
